Here's a thinking process that leads to the generated MLIR TOSA example:

Understand the Goal: The user wants an MLIR file that uses the TOSA dialect and specifically demonstrates the core structural elements of MLIR: module, func.func, block, and region. This is needed for testing a parser.

Identify Core MLIR Structures:

module: The top-level container in MLIR. It holds functions, global variables, etc. It has one region containing one block.
func.func: Represents a function definition. It has a name (prefixed with @), a function type (inputs and outputs), and a body (a region).
region: A container for a sequence of blocks. Most operations that have control flow or scoping (like func.func, scf.if, linalg.generic) contain regions. A module and a func.func inherently have one region.
block: A sequence of operations ending with a terminator operation (like func.return, cf.br, scf.yield). Blocks have arguments (like function parameters but for blocks). The entry block of a function receives the function arguments.
Identify TOSA Requirements: The user specifically requested the TOSA dialect. This means the operations inside the function body should be TOSA operations. What are some simple TOSA operations?

tosa.const: Defines a constant tensor.
tosa.add: Element-wise addition.
tosa.sub: Element-wise subtraction.
tosa.mul: Element-wise multiplication (needs shift attribute).
tosa.reshape: Changes the shape of a tensor.
tosa.conv2d: 2D convolution (more complex, maybe avoid for a simple example).
tosa.fully_connected: Fully connected layer (also more complex).
Design a Simple Function: Let's create a function that takes two tensors, adds them, subtracts a constant, and returns the result. This will naturally involve:

Function definition (func.func).
Function arguments (passed to the entry block).
A constant (tosa.const).
An arithmetic operation (tosa.add).
Another arithmetic operation (tosa.sub).
A return statement (func.return).
Structure the MLIR:

Module: Start with module { ... }.
Function: Define a function inside the module. Let's call it @simple_tosa_func.
Inputs: It needs inputs. Let's take two tensor<4x4xf32> tensors.
Outputs: It should return one tensor<4x4xf32> tensor.
Function Signature: func.func @simple_tosa_func(%arg0: tensor<4x4xf32>, %arg1: tensor<4x4xf32>) -> tensor<4x4xf32> { ... }
Function Body (Region and Block): The function body is a region containing at least one block (the entry block).
Entry Block: The block automatically gets the function arguments: ^bb0(%arg0: tensor<4x4xf32>, %arg1: tensor<4x4xf32>): (The types here are technically redundant with the function signature but often included for clarity).
Operations within the Block:
Define a constant: %cst = tosa.const {value = dense<1.0 : tensor<4x4xf32>>} : () -> tensor<4x4xf32> (Need to decide on a value and shape. Let's use 1.0 and match the input shape 4x4xf32).
Add the inputs: %add_result = tosa.add %arg0, %arg1 : (tensor<4x4xf32>, tensor<4x4xf32>) -> tensor<4x4xf32>
Subtract the constant: %sub_result = tosa.sub %add_result, %cst : (tensor<4x4xf32>, tensor<4x4xf32>) -> tensor<4x4xf32>
Return the final result: func.return %sub_result : tensor<4x4xf32>
Putting it together (Initial Draft):
MLIR

module {
  func.func @simple_tosa_func(%arg0: tensor<4x4xf32>, %arg1: tensor<4x4xf32>) -> tensor<4x4xf32> {
  ^bb0(%arg0: tensor<4x4xf32>, %arg1: tensor<4x4xf32>): // Entry block
    %cst = tosa.const {value = dense<1.0 : tensor<4x4xf32>>} : () -> tensor<4x4xf32>
    %add_result = tosa.add %arg0, %arg1 : (tensor<4x4xf32>, tensor<4x4xf32>) -> tensor<4x4xf32>
    %sub_result = tosa.sub %add_result, %cst : (tensor<4x4xf32>, tensor<4x4xf32>) -> tensor<4x4xf32>
    func.return %sub_result : tensor<4x4xf32>
  } // end func region
} // end module region
Explicitly Showing Regions/Blocks: The above implicitly shows regions (inside module and func.func) and blocks (the entry block ^bb0). Can we make it more explicit for testing purposes? We could add an operation that itself contains a region, like scf.if.

Adding scf.if (Optional but good for testing): Let's modify the function to conditionally do something. Maybe add arg0 + arg1 if some condition is true, otherwise return arg0. This requires a boolean condition. How to get one in TOSA? TOSA doesn't have direct boolean types like i1 used by scf.if. This makes integrating scf.if directly with TOSA results tricky without extra dialect conversions (arith, func). For a pure TOSA example focused on structure, sticking to the simpler linear flow might be better for the user's specific request (testing a TOSA parser and basic MLIR structure). If they needed to test region parsing within TOSA ops, we'd look for TOSA ops that have regions (there aren't many standard ones like scf.if or linalg.generic).

Refining the Simple Example: The simple linear example clearly shows:

module { ... }: Top-level container (with its implicit region/block).
func.func @... { ... }: Function definition (contains a region).
The region inside func.func contains:
^bb0(...):: A block (the entry block).
Several tosa. operations within the block.
func.return: The block terminator.
Adding Comments and Explanation: Explain each part (module, func.func, the function signature, the block label ^bb0, SSA values like %arg0, %cst, TOSA operations, attributes like {value = ...}, types like tensor<4x4xf32>, and the terminator func.return). Explicitly point out where the regions and blocks are.

Final Check: Does this meet the user's request?

MLIR file? Yes.
TOSA dialect? Yes (tosa.const, tosa.add, tosa.sub).
Exhibits module? Yes.
Exhibits func.func? Yes.
Exhibits block? Yes (^bb0).
Exhibits region? Yes (implicitly within module and func.func).
The example is clear and demonstrates the requested structures using the specified dialect.

Okay, here is an example MLIR file using the TOSA dialect that demonstrates the core structural components: module, func.func, region, and block.